model_save/HCLNN_SCAF_6.pth (torch, 113397 bytes, 128 tensors)

weight f4 [16, 8]
-0.0041455845 0.006114194 0.6097821 -0.19279009 -0.1485173 0.16613612 0.001685802 0.052099433
0.027603766 -0.04656755 -0.066224925 -0.08943813 -0.097890854 -0.030324487 0.036176164 0.052490566
-0.029649092 0.038192216 0.037054293 0.07016078 -0.06453738 -0.012879943 -0.047118004 -0.00023170336
0.008699639 -0.007200918 -0.37739316 0.018672677 -0.38755044 -0.29192352 0.005471446 -0.50695866
0.031314857 -0.025490403 0.045296215 0.044698313 0.20001216 0.04889555 0.056652874 -0.060727093
0.014402832 0.00939298 -0.1559717 0.20266898 0.11597743 -0.034523476 0.033769693 0.6479137
-0.031883262 0.029421493 -0.006929852 0.030593678 -0.25316438 -0.063341 -0.052213795 0.063870795
0.028933331 0.014383127 0.12253665 0.18020064 0.13304292 0.58226305 0.071311936 -0.34370518
-0.010058837 0.096197195 -0.18085836 -0.2566434 -0.31496888 -0.0809891 0.010909446 0.13060668
0.033554967 -0.027676972 0.00523962 -0.059138328 0.39058977 0.1007688 0.05140329 -0.100750156
-0.031116018 0.027485695 -0.03139339 -0.021318844 -0.19850233 -0.0485172 -0.05489307 0.05618755
0.029061858 -0.040514845 -0.052243266 -0.08765287 0.019815125 0.0009920613 0.04445746 0.016744819
0.030072542 -0.039319474 -0.063422106 -0.12165705 0.09954086 0.022334378 0.044415306 -0.0016361662
-0.006912105 -0.0023251201 -0.24599141 0.48898998 0.37679428 0.4785551 -0.012264071 0.08935327
0.030948376 -0.028091991 0.027205408 0.015010593 0.19405514 0.04733686 0.054551616 -0.053758796
0.030953966 -0.03608472 -0.04264332 -0.100746155 0.17693089 0.042992238 0.046955436 -0.028647661
00000000: afd7 87bb 9459 c83b ae1a 1c3f c46a 45be
00000010: eb14 18be 961f 2a3e 21f6 dc3a 3766 553d
00000020: 4b21 e23c 9ebd 3ebd efa0 87bd 572b b7bd
00000030: 007b c8bd 0f6b f8bc 752d 143d 5900 573d
00000040: a7e2 f2bc 716f 1c3d 3ec6 173d 74b0 8f3d
00000050: 2d2c 84bd 6506 53bc cffe 40bd 66f5 72b9
00000060: ee88 0e3c aef5 ebbb ad39 c1be 71f7 983c
00000070: 036d c6be 0077 95be d149 b33b 0bc8 01bf
00000080: 0244 003d 40d1 d0bc 8688 393d 9415 373d
00000090: fdcf 4c3e b346 483d d80c 683d f9bc 78bd
000000a0: dbf9 6b3c 03e5 193c 0cb7 1fbe 7588 4f3e
000000b0: 9385 ed3d 7d68 0dbd 1752 0a3d acdd 253f
000000c0: 0698 02bd 5805 f13c d013 e3bb 989f fa3c
000000d0: c39e 81be edb8 81bd 22de 55bd b1ce 823d
000000e0: 9805 ed3c 35a7 6b3c 7ff4 fa3d 8486 383e
000000f0: 673c 083e 310f 153f fe0b 923d 20fa afbe
00000100: d2cd 24bc 0903 c53d ef32 39be c466 83be
00000110: 9a43 a1be 9ddd a5bd 88bd 323c c2bd 053e
00000120: ef70 093d d1ba e2bc 1eb1 ab3b 083b 72bd
00000130: 62fb c73e df5f ce3d 428c 523d 1956 cebd
00000140: 05e7 febc ae29 e13c 5b96 00bd dba4 aebc
00000150: 3244 4bbe f9b9 46bd 8ed7 60bd eb24 663d
00000160: 2213 ee3c e5f2 25bd 09fd 55bd 5983 b3bd
00000170: 5453 a23c 0e08 823a 0719 363d 6e2c 893c
00000180: b15a f63c 750d 21bd 73e3 81bd 5527 f9bd
00000190: 14dc cb3d 96f6 b63c d3ec 353d a174 d6ba
000001a0: f07e e2bb 0b61 18bb 2ce5 7bbe e55c fa3e
000001b0: 2eeb c03e 2d05 f53e 3eef 48bc d9fe b63d
000001c0: 7387 fd3c 2d21 e6bc e0dd de3c feee 753c
000001d0: 64b6 463e 4ce4 413d 8471 5f3d 2f32 5cbd
000001e0: 2c93 fd3c 92cd 13bd c3aa 2ebd 0054 cebd
000001f0: 5f2d 353e a118 303d 5854 403d 80ae eabc

bias f4 [16]
-0.03236221 0.025281988 -0.006041939 -0.07123879 -0.024411088 0.14630729 0.01889859 -0.08060917
0.06630525 -0.028745143 0.020854557 0.013110995 0.0099231275 -0.1438562 -0.019485096 -0.00096346013
00000000: 3d8e 04bd 2c1c cf3c 75fb c5bb a5e5 91bd
00000010: c3f9 c7bc 94d1 153e 37d1 9a3c 6c16 a5bd
00000020: 0ccb 873d ef7a ebbc 2dd7 aa3c 80cf 563c
00000030: 9d94 223c 0a4f 13be 359f 9fbc b790 7cba

weight f4 [2, 16]
-0.38390124 -0.0031558871 0.0028910239 -0.12311357 -0.0027868024 0.55287987 0.0024475318 -0.19079854
0.002811675 -0.002011218 0.0027464095 -0.0029498464 -0.0025759595 0.34291652 -0.0027398637 -0.0024394942
0.24627012 0.003726134 -0.0033206707 -0.43854195 0.0029223042 0.2861197 -0.0029004223 -0.17529173
-0.0027350935 0.002663835 -0.0029567336 0.003457091 0.0033040629 -0.088924944 0.002963817 0.00311226
00000000: b48e c4be 00d3 4ebb 5577 3d3b f822 fcbd
00000010: c9a2 36bb 8989 0d3f c566 203b b160 43be
00000020: 1444 383b a4ce 03bb 1bfd 333b 3652 41bb
00000030: 6ed1 28bb c192 af3e 498f 33bb ecdf 1fbb
00000040: 3c2e 7c3e 2832 743b 9c9f 59bb 9288 e0be
00000050: 2184 3f3b 487e 923e 0315 3ebb ad7f 33be
00000060: 413f 33bb bc93 2e3b c2c5 41bb 5d90 623b
00000070: fa88 583b 481e b6bd 993c 423b 0ff7 4b3b

bias f4 [2]
0.09143684 0.03816257
00000000: 3d43 bb3d 5b50 1c3d

weight f4 [7, 11]
-0.18440579 -0.3426218 0.32818574 0.21432714 -0.15281914 0.25175348 -0.40470695 -0.10671049
0.24190176 0.18514642 0.23382504 0.51036644 -0.5031066 -0.19317663 0.39776942 -0.5161193
0.16964673 0.19982278 0.08745372 -0.13270344 -0.15213063 -0.2693204 -0.5655635 0.068139054
-0.09169887 0.33170888 0.3194004 -0.052961994 0.01804014 1.0947058 0.2126912 -0.12119038
0.14638436 -0.3718065 0.4547747 -0.54241586 -0.35106394 0.286823 0.066006646 0.060877856
-0.21871036 -0.44092542 -0.08030145 0.2771255 0.38956508 -0.32755873 -0.24624781 -0.04238227
-0.008913328 -0.060637098 -0.05168496 0.30146304 -0.11190202 0.32716554 0.053792566 -0.45872417
0.26495847 0.07884467 0.28870136 0.34291044 0.14524873 -0.298903 -0.3212142 -0.7072075
-0.5260538 0.9271679 0.17655572 0.16913189 0.5140598 -0.13035053 0.10107611 0.31168607
0.24429053 -0.27749366 -0.06520547 0.046816982 -0.08748641
00000000: dfd4 3cbe 206c afbe f607 a83e 9378 5b3e
00000010: 9f7c 1cbe d5e5 803e c035 cfbe 088b dabd
00000020: 18b5 773e 0697 3d3e d56f 6f3e 60a7 023f
00000030: 98cb 00bf 18d0 45be 6fa8 cb3e 6520 04bf
00000040: dfb7 2d3e 589e 4c3e f01a b33d 69e3 07be
00000050: 22c8 1bbe 5de4 89be c5c8 10bf 7d8c 8b3d
00000060: 9ecc bbbd bfd5 a93e 7388 a33e adee 58bd
00000070: eac8 933c 521f 8c3f b9cb 593e a932 f8bd
00000080: c8e5 153e 6c5d bebe 3bd8 e83e c4db 0abf
00000090: a7be b3be 77da 923e 7e2e 873d 0f5b 793d
000000a0: 9cf5 5fbe fac0 e1be 1675 a4bd 65e3 8d3e
000000b0: 1375 c73e c7b5 a7be 6328 7cbe 0899 2dbd
000000c0: 3509 12bc 9b5e 78bd 9cb3 53bd 5d59 9a3e
000000d0: e32c e5bd 3e82 a73e 9855 5c3d e5dd eabe
000000e0: a3a8 873e 5079 a13d aad0 933e f591 af3e
000000f0: 15bc 143e d009 99be 3076 a4be 8d0b 35bf
00000100: 76ab 06bf e05a 6d3f 06cb 343e e930 2d3e
00000110: 6c99 033f 9c7a 05be fe00 cf3d 5195 9f3e
00000120: 4c27 7a3e a613 8ebe 728a 85bd 2ac3 3f3d
00000130: 132c b3bd

bias f4 [7]
-0.15707421 0.04291769 0.34098336 0.105986185 0.4411805 -0.12859058 0.1279475
00000000: 10d8 20be 76ca 2f3d 5f95 ae3e 490f d93d
00000010: 69e2 e13e 40ad 03be ab04 033e

weight f4 [7, 11]
-0.44694504 0.45191458 -0.5547678 0.44046873 -0.69898385 0.4278119 0.033215478 0.005018338
-0.49227 -0.21714266 0.48628297 -0.5559415 0.1727669 -0.3168052 -0.07818709 -0.5267566
1.2399762 -1.4647605 0.43994042 0.38808575 -0.21129507 0.88809323 -0.35557696 -0.2408451
-0.14541203 -0.291725 0.64660716 -0.0895872 0.00040325936 0.7143939 0.2307291 0.14304005
-0.04808972 -0.052184418 0.42308205 0.07463425 -0.26120204 0.24444279 -0.6916425 0.08445514
0.92200595 -0.27958447 -0.08887956 0.017143162 0.2605332 0.52802885 -0.38877565 -0.08301038
0.18720253 0.24872293 0.34035093 -0.041219126 -0.1481368 0.1062645 0.1044958 -0.4242331
-0.40126157 -0.16649486 -0.35281137 0.30165756 0.10866019 0.66646534 1.1132343 0.3756436
-0.24161671 -0.39511904 0.49869704 -0.09342233 -0.3563452 -0.54939264 0.3200029 0.21777989
-0.34673893 -0.6380388 0.5145135 0.104878485 -0.00014644877
00000000: fbd5 e4be 5961 e73e 4305 0ebf 1e85 e13e
00000010: 9bf0 32bf 290a db3e f40c 083d df70 a43b
00000020: d00a fcbe a55a 5ebe 15fa f83e 2f52 0ebf
00000030: cee9 303e 4b34 a2be 8e20 a0bd 85d9 06bf
00000040: 8ab7 9e3f 467d bbbf df3f e13e 2db3 c63e
00000050: bc5d 58be 145a 633f 2f0e b6be 19a0 76be
00000060: e4e6 14be fb5c 95be 0c88 253f 7e79 b7bd
00000070: 8e6c d339 85e2 363f 4044 6c3e 1779 123e
00000080: baf9 44bd 54bf 55bd 369e d83e d7d9 983d
00000090: 46bc 85be 364f 7a3e 7c0f 31bf d1f6 ac3d
000000a0: 9508 6c3f b225 8fbe 7d06 b6bd d16f 8c3c
000000b0: 9c64 853e e62c 073f 9a0d c7be 5901 aabd
000000c0: 05b2 3f3e 39b1 7e3e 7a42 ae3e 63d5 28bd
000000d0: 2cb1 17be 34a1 d93d e501 d63d 1535 d9be
000000e0: 2872 cdbe a17d 2abe b1a3 b4be dc72 9a3e
000000f0: 3c89 de3d 799d 2a3f 767e 8e3f 5c54 c03e
00000100: 5f6a 77be 0b4d cabe 3855 ff3e 3554 bfbd
00000110: e172 b6be ffa4 0cbf 6cd7 a33e b101 5f3e
00000120: c487 b1be 8356 23bf 28b7 033f 88ca d63d
00000130: 0b90 19b9

bias f4 [7]
0.203028 -0.033469852 -0.07801658 0.74923456 0.4631984 0.27175346 -0.042712316
00000000: 92e6 4f3e af17 09bd 28c7 9fbd d6cd 3f3f
00000010: 5728 ed3e 4523 8b3e 1cf3 2ebd

weight f4 [7, 11]
-0.16201028 0.3344336 -0.34461436 1.2666452 0.088606246 0.89782566 1.0677991 -0.038280252
-0.6331913 -0.21104684 1.5194075 0.98817044 -0.30622998 -0.1921469 0.40455145 -0.8494565
-0.12520339 -1.8082762 2.515859 0.25236127 0.18372065 0.6578039 -0.7060084 -0.27096742
0.14380594 -0.5989735 0.30710375 -0.9733416 0.29387534 0.13757484 0.3407964 0.61895907
-0.08947315 -0.202212 -0.3250331 0.28293714 -0.16388772 -0.40399906 0.9974741 0.6457473
-0.8721808 0.77799577 -0.5945925 -0.06707363 0.5391381 -0.04837045 0.31783292 0.2496902
-1.4249897 -0.0786656 0.53678066 -0.6016872 0.015966438 0.31116518 -0.020397404 0.769476
-0.58247566 -0.12841451 -0.08003759 0.41511586 -0.43193758 1.0029827 0.23030499 0.8293741
0.42906073 -0.41540116 0.61543924 0.040478565 0.09268315 -0.91331106 -0.6403142 -0.14431095
-0.1035315 0.14579983 -0.1649712 -0.11868264 -2.657915
00000000: 06e6 25be e13a ab3e 4b71 b0be 6e21 a23f
00000010: 3177 b53d e7d7 653f a4ad 883f c1cb 1cbd
00000020: d318 22bf aa1c 58be f27b c23f bdf8 7c3f
00000030: 2dca 9cbe 28c2 44be 5e21 cf3e fb75 59bf
00000040: 5135 00be 9875 e7bf d503 2140 7f35 813e
00000050: 4421 3c3e d665 283f f7bc 34bf 3ebc 8abe
00000060: dd41 133e 5456 19bf b43c 9d3e ea2c 79bf
00000070: d476 963e 6be0 0c3e de7c ae3e 1a74 1e3f
00000080: b33d b7bd aa10 4fbe bd6a a6be 23dd 903e
00000090: 2fd2 27be f7d8 cebe 765a 7f3f b24f 253f
000000a0: 3e47 5fbf bb2a 473f 3737 18bf e65d 89bd
000000b0: f404 0a3f 1820 46bd ffba a23e caae 7f3e
000000c0: 1066 b6bf 6e1b a1bd 756a 093f 2c08 1abf
000000d0: 0ccc 823c 0b51 9f3e 7518 a7bc 61fc 443f
000000e0: 201d 15bf 187f 03be bfea a3bd 118a d43e
000000f0: ec26 ddbe bd61 803f 12d5 6b3e dc51 543f
00000100: d9ad db3e 76af d4be 6d8d 1d3f dacc 253d
00000110: aad0 bd3d c1ce 69bf a2eb 23bf 40c6 13be
00000120: 5308 d4bd 8d4c 153e 36ee 28be e20f f3bd
00000130: 481b 2ac0

bias f4 [7]
0.21535462 -1.3394688 0.3931682 -1.2368374 0.17766844 0.3604498 -1.2226443
00000000: ec85 5c3e b773 abbf 584d c93e b050 9ebf
00000010: b7ee 353e e08c b83e 9c7f 9cbf

weight f4 [7, 11]
0.3876364 -0.20120643 0.58824533 0.50208825 0.48932287 0.8170357 0.7773093 -0.7824944
-0.35647038 0.09583973 1.4939198 0.27658978 -0.38772178 -0.37046424 0.4734022 -1.0732796
0.35056528 -2.0245485 1.6226499 -0.5641752 -0.36082762 0.7359672 -0.959856 0.3245279
0.18476398 0.13437918 0.040072605 -1.0683177 0.38999897 0.36925897 0.25378278 0.27909568
-0.3889851 -0.32565254 -0.34762257 0.38433108 0.2653826 -0.8382809 0.99848616 -0.33691216
-0.85883003 0.5310557 -0.23054239 0.14989655 0.57846224 -0.68238693 0.27652118 0.09109357
-0.7187798 -0.802787 0.74188614 -1.1328592 0.025310881 0.8052786 -0.08768657 0.39154106
0.52808833 0.34191298 0.64986193 0.08494154 0.43257278 0.88185394 -0.41534314 0.92034286
0.23350137 -0.6174045 0.53859526 -0.69661975 -0.10099565 -0.9602147 -1.0346745 -0.69662493
-0.10071206 0.10436737 -0.15509483 0.70899117 -1.9614599
00000000: 4778 c63e 0f09 4ebe 3f97 163f db88 003f
00000010: 8788 fa3e 4029 513f befd 463f 8e51 48bf
00000020: 4983 b6be 9f47 c43d c438 bf3f 2d9d 8d3e
00000030: 7883 c6be 7dad bdbe c661 f23e 3a61 89bf
00000040: 4b7d b33e 3492 01c0 feb2 cf3f c96d 10bf
00000050: 66be b8be 5968 3c3f 1fb9 75bf 8528 a63e
00000060: c532 3d3e b29a 093e 2c23 243d a2be 88bf
00000070: f2ad c73e 830f bd3e d1ef 813e a1e5 8e3e
00000080: 0e29 c7be eebb a6be 96fb b1be 0bc7 c43e
00000090: 3ae0 873e 9499 56bf ca9c 7f3f c07f acbe
000000a0: 49dc 5bbf 44f3 073f 4e13 6cbe 7b7e 193e
000000b0: 1a16 143f e9b0 2ebf 2f94 8d3e 448f ba3d
000000c0: f401 38bf 7383 4dbf 40ec 3d3f 8801 91bf
000000d0: c458 cf3c bd26 4e3f 0495 b3bd 1278 c83e
000000e0: cc30 073f 380f af3e 5a5d 263f d5f5 ad3d
000000f0: 2e7a dd3e 2ec1 613f dba7 d4be 979b 6b3f
00000100: fc1a 6f3e 390e 1ebf 61e1 093f ac55 32bf
00000110: cfd6 cebd a1d0 75bf 3770 84bf 0356 32bf
00000120: 2042 cebd 8fbe d53d 2ed1 1ebe 7280 353f
00000130: 1e11 fbbf

bias f4 [7]
0.41344443 -1.3012868 0.58165914 -0.8822968 0.048150945 0.36432078 -1.1347195
00000000: fdae d33e 9190 a6bf 9de7 143f 34de 61bf
00000010: ed39 453d 4188 ba3e 7d3e 91bf

weight f4 [4, 11]
-0.20021346 -0.11909169 -0.5504063 -0.59751755 -0.2880759 0.29216492 -0.8325047 -0.15850854
0.19588986 0.09568434 0.77529734 -0.028930029 -0.30313182 -0.02043016 0.074746385 -0.54855114
0.1972336 -0.05867877 0.2586081 0.17811488 -0.048620973 -0.33336315 -0.14175919 0.111300714
0.23305804 0.39413607 -0.27542892 -0.5201252 -0.34683496 -0.33544436 0.5843273 -0.2236395
0.262045 0.44201627 -0.48666742 -0.07047749 -0.08872818 0.30971172 -0.18378648 0.21878774
-0.79125446 0.14668593 0.56362855 -0.61215526
00000000: c204 4dbe 58e6 f3bd 6de7 0cbf e9f6 18bf
00000010: af7e 93be a496 953e 071f 55bf 1050 22be
00000020: 5a97 483e 27f6 c33d e379 463f abfe ecbc
00000030: 1834 9bbe 275d a7bc a214 993d d96d 0cbf
00000040: 9bf7 493e 2659 70bd 4868 843e bf63 363e
00000050: c926 47bd 93ae aabe 5229 11be a1f1 e33d
00000060: c4a6 6e3e 34cc c93e 0505 8dbe ed26 05bf
00000070: 5a94 b1be 5dbf abbe 7996 153f c101 65be
00000080: c32a 863e f54f e23e 792c f9be 8156 90bd
00000090: 1fb7 b5bd 8992 9e3e 8632 3cbe e509 603e
000000a0: a78f 4abf d634 163e f649 103f 35b6 1cbf

bias f4 [4]
-0.070844546 -0.031481404 0.046228006 0.08012536
00000000: f216 91bd a5f2 00bd 9459 3d3d c418 a43d

weight f4 [4, 11]
-0.40969336 0.51176256 -0.029135253 -0.6428357 0.3128822 -0.23722798 0.5129888 0.85418546
-0.44052225 -0.051580746 0.7485721 0.45998713 -0.27088258 0.008727131 -1.0066636 0.417474
0.041186273 -0.6186048 -0.7576738 0.21045052 0.7348672 0.30461946 -0.5142993 0.54207116
-0.07497446 -0.2838133 -0.52238613 -0.46742335 0.2229039 0.045529317 -0.44214782 -0.16426624
0.08303446 -0.27104768 0.069403544 0.08543095 0.5803545 -0.4074083 -0.3180192 0.63817906
0.019669922 -0.18358618 0.23465297 0.05806209
00000000: 54c3 d1be df02 033f 0ead eebc e190 24bf
00000010: 1932 a03e e4eb 72be 3c53 033f e6ab 5a3f
00000020: 228c e1be 5546 53bd 6ca2 3f3f 6f83 eb3e
00000030: 1fb1 8abe 3efc 0e3c 5ada 80bf 27bf d53e
00000040: f0b2 283d e25c 1ebf e9f6 41bf 5780 573e
00000050: 4220 3c3f 15f7 9b3e 1ea9 03bf 2dc5 0a3f
00000060: 368c 99bd fa4f 91be 19bb 05bf 1d52 efbe
00000070: ec40 643e f37c 3a3d 3361 e2be 6935 28be
00000080: f90d aa3d c3c6 8abe 7223 8e3d 6cf6 ae3d
00000090: 1d92 143f d297 d0be 6ad3 a2be b45f 233f
000000a0: d122 a13c 04fe 3bbe de48 703e 84d2 6d3d

bias f4 [4]
-0.016657004 0.22596458 0.25159824 -0.1554409
00000000: 4574 88bc 4263 673e 7cd1 803e e62b 1fbe

weight f4 [4, 11]
-0.5281274 -0.7536001 0.17959239 0.42765123 -0.9416063 0.26050094 0.61735016 -0.78453493
-0.07188944 -0.995754 -0.29507223 1.2324497 -0.61192816 0.5329918 0.21771042 -0.81266075
-0.3675178 -0.50623786 0.32491317 -0.9725348 -1.1094596 -1.0142417 0.4360961 -0.7578359
-0.2670413 1.2918148 -0.06825655 0.06568777 -0.017564137 0.34155387 0.2346328 -0.48322716
-0.07866145 0.10116812 -0.68204576 0.55033505 0.0975607 -0.070322916 -0.23304136 -0.5794021
-0.4187018 -0.23438548 0.4532802 0.074154064
00000000: 5b33 07bf f0eb 40bf 11e7 373e 1af5 da3e
00000010: 1c0d 71bf 6160 853e a90a 1e3f 48d7 48bf
00000020: c53a 93bd bce9 7ebf b513 97be e9c0 9d3f
00000030: 53a7 1cbf 2772 083f 7bef 5e3e 890a 50bf
00000040: 4b2b bcbe ce98 01bf 055b a63e 0af8 78bf
00000050: c602 8ebf acd2 81bf fd47 df3e 8901 42bf
00000060: a3b9 88be 305a a53f 17ca 8bbd 4f87 863d
00000070: aae2 8fbc 26e0 ae3e 9543 703e 8d69 f7be
00000080: 4119 a1bd 3b31 cf3d 8d9a 2ebf c2e2 0c3f
00000090: e7cd c73d 7605 90bd 65a2 6ebe b253 14bf
000000a0: 1560 d6be bf02 70be 5814 e83e 16de 973d

bias f4 [4]
-0.045223042 -0.1209863 0.44286126 0.20863092
00000000: cc3b 39bd aac7 f7bd b6be e23e 58a3 553e

weight f4 [4, 11]
-0.44401014 0.21064445 0.37338397 -0.37863955 -1.1301563 -0.21222141 -0.32485002 -0.50094175
-0.07680529 -0.3948394 -0.3188145 0.8802677 0.25724736 0.06703115 -0.050107636 -0.8654646
0.12290581 -0.051677804 0.03473281 -1.3511974 -0.69302785 -0.13414349 -0.15339787 -0.7021459
-0.25581968 1.4028744 -0.7019187 0.029696621 -0.3935167 -0.113511205 0.69595104 -0.803746
0.67285997 0.9470538 -0.14860739 0.7442596 0.7449593 0.31948403 0.26615667 0.15690792
0.33897913 -0.07123496 0.1214448 -0.20771475
00000000: 4c55 e3be 2eb3 573e 2f2c bf3e 0bdd c1be
00000010: f6a8 90bf 9250 59be be52 a6be b83d 00bf
00000020: 184c 9dbd 6428 cabe a73b a3be 3959 613f
00000030: edb5 833e a147 893d aa3d 4dbd 178f 5dbf
00000040: 0bb6 fb3d 1bac 53bd fe43 0e3d 09f4 acbf
00000050: 466a 31bf e95c 09be 5514 1dbe d5bf 33bf
00000060: ccfa 82be 6391 b33f f2b0 33bf 5446 f33c
00000070: 057b c9be 9078 e8bd d929 323f 4cc2 4dbf
00000080: 8d40 2c3f 1e72 723f 892c 18be cc87 3e3f
00000090: a7b5 3e3f 6993 a33e b045 883e 78ac 203e
000000a0: ac8e ad3e a2e3 91bd 0db8 f83d 2db3 54be

bias f4 [4]
-0.29549274 0.08053647 0.34451145 0.04858409
00000000: d34a 97be 4ef0 a43d ce63 b03e 1c00 473d

weight f4 [8, 12]
0.40291968 -0.47832617 0.18848968 -0.29799452 -0.9985864 0.051144216 0.43116236 0.075460754
0.29102826 -0.016391376 0.676346 0.3789996 -0.52635664 -0.3757723 -0.33722728 0.27075183
0.5678307 0.42501462 -0.079598986 -0.2490764 0.72962224 0.05185985 -0.37396717 -0.36334768
0.096147664 -0.23470806 -0.16795334 -0.5862244 0.12457207 0.11745041 0.50631297 0.055890102
0.25353327 0.18351333 0.295787 0.5961952 0.12705323 -0.20142286 -0.36396164 0.32694128
0.0895682 0.24245144 0.38130105 -0.05037612 -0.0024989531 0.14854045 -0.93951654 0.12056014
0.16489851 0.25193784 0.07559297 -0.08646416 0.42472354 -0.18782909 -0.34875947 -0.07177714
0.7592828 0.62610614 0.059141796 -0.2578306 -0.31439608 0.422601 0.016482003 -0.4649706
0.22844678 1.1388545 -0.1600467 -0.15871748 1.2663662 -1.234218 -0.81142265 -0.21068007
0.043813717 -0.14493637 -1.1431578 0.39769036 -0.08361206 0.45995945 -0.01670717 -0.22688025
0.17005952 0.7778559 0.93262744 -0.28277722 -0.17986146 0.31321853 0.15775672 -0.90152425
0.32203266 -0.6625916 0.20096473 -0.23943892 0.1278364 0.092618875 -0.007677673 -0.24339142
00000000: 7d4b ce3e 2be7 f4be 7003 413e bd92 98be
00000010: 5ca3 7fbf 997c 513d 50c1 dc3e 2b8b 9a3d
00000020: a801 953e 3547 86bc 0325 2d3f 3c0c c23e
00000030: 4fbf 06bf 3a65 c0be 0ea9 acbe fc9f 8a3e
00000040: 5a5d 113f 849b d93e cb04 a3bd e20d 7fbe
00000050: 86c8 3a3f fe6a 543d a078 bfbe b508 babe
00000060: 11e9 c43d 4f57 70be f6fb 2bbe cd12 16bf
00000070: a41f ff3d d789 f03d ba9d 013f 05ed 643d
00000080: 1dcf 813e ebea 3b3e 6571 973e 40a0 183f
00000090: 3e1a 023e cb41 4ebe 2e59 babe d964 a73e
000000a0: 886f b73d 3145 783e e439 c33e 3157 4ebd
000000b0: 7ac5 23bb fd1a 183e 2884 70bf 3ce8 f63d
000000c0: 28db 283e fffd 803e 7dd0 9a3d 1f14 b1bd
000000d0: 5d75 d93e 4556 40be 9a90 b2be e5ff 92bd
000000e0: 5c60 423f 7e48 203f ab3e 723d 5f02 84be
000000f0: 86f8 a0be 295f d83e 4405 873c a010 eebe
00000100: f4ed 693e fcc5 913f 48e3 23be d686 22be
00000110: 4a18 a23f dbfa 9dbf 65b9 4fbf 84bc 57be
00000120: 0376 333d 336a 14be ff52 92bf 129e cb3e
00000130: cd3c abbd ce7f eb3e 7add 88bc 4c53 68be
00000140: 1524 2e3e 9021 473f acc0 6e3f 2dc8 90be
00000150: 9a2d 38be 2e5e a03e fa8a 213e 4bca 66bf
00000160: 77e1 a43e 9a9f 29bf b3c9 4d3e 7a2f 75be
00000170: 8ce7 023e f7ae bd3d fd94 fbbb 9a3b 79be

bias f4 [8]
0.1260684 -0.06416489 -0.09432036 0.082061335 0.2571769 -0.011847571 0.31501526 0.11005887
00000000: 1318 013e e268 83bd 082b c1bd c60f a83d
00000010: b1ac 833e 501c 42bc ae49 a13e 8b66 e13d

weight f4 [8, 12]
-0.09729507 -0.34244043 1.0677485 0.2142249 0.8136624 -0.42261204 0.99605465 0.07965804
-0.14917327 0.23515062 -0.23950262 0.017949115 -0.080496974 0.43518734 0.2847118 -0.14727496
-0.5832661 -0.5801741 0.43835682 -0.2097735 0.04400015 0.60974586 1.1537986 0.31860322
0.07843259 -0.17499228 -0.49218428 -0.27676615 -0.4601838 0.04214862 0.09428793 0.30179578
0.16054745 -0.36898494 -0.23560907 0.2015816 0.20785318 -0.44681108 -0.71010494 0.12635523
-0.48093915 0.004436652 0.12787393 0.22854447 -0.32596686 -0.18431517 0.2841638 0.8813342
-0.1443324 0.6310903 0.4274428 -0.3324667 -0.6396233 0.11444222 -0.113200806 0.23438998
0.1804355 -0.5107193 0.60607606 -0.18419357 -0.27298358 0.16711602 -0.009146787 0.5086938
-0.0132858 -1.2265989 -0.10911408 0.6571595 0.4851203 0.21001822 -0.17677712 -0.051770505
0.31540594 0.08452579 0.3162586 0.12785883 0.09529203 -0.8364465 0.1648282 0.18737933
0.23991726 0.14491594 0.23477842 -0.15949957 -0.016180804 0.3082493 -0.17884715 -0.76735467
-0.2907108 0.5170217 -0.5222721 0.29253238 0.082882985 0.16314806 0.28952512 -0.5772065
00000000: a342 c7bd 5a54 afbe fcab 883f c65d 5b3e
00000010: 2e4c 503f 9b60 d8be 70fd 7e3f c123 a33d
00000020: e1c0 18be 53cb 703e 2d40 75be 060a 933c
00000030: 99db a4bd e0d0 de3e bfc5 913e 3fcf 16be
00000040: ed50 15bf 4a86 14bf 4e70 e03e ddce 56be
00000050: 8039 343d 4e18 1c3f acaf 933f f61f a33e
00000060: 44a1 a03d 2d31 33be 94ff fbbe 4bb4 8dbe
00000070: 369d ebbe 08a4 2c3d 081a c13d fa84 9a3e
00000080: 8d66 243e 98eb bcbe 8143 71be 686b 4e3e
00000090: 77d7 543e 6cc4 e4be 70c9 35bf 4463 013e
000000a0: a83d f6be 5661 913b 62f1 023e 9007 6a3e
000000b0: 21e5 a6be 1ebd 3cbe eb7d 913e 1e9f 613f
000000c0: dfcb 13be 228f 213f c8d9 da3e 1339 aabe
000000d0: 5abe 23bf af60 ea3d d3d5 e7bd ed03 703e
000000e0: 15c4 383e 80be 02bf cd27 1b3f 3d9d 3cbe
000000f0: 81c4 8bbe 7620 2b3e 68dc 15bc c239 023f
00000100: afac 59bc 3101 9dbf 3477 dfbd 9b3b 283f
00000110: b061 f83e 040f 573e 1005 35be 4f0d 54bd
00000120: e37c a13e db1b ad3d a6ec a13e 6ded 023e
00000130: 7828 c33d 5c21 56bf b9c8 283e 5ee0 3f3e
00000140: dfac 753e d864 143e c169 703e db53 23be
00000150: 9b8d 84bc dad2 9d3e b523 37be 5b71 44bf
00000160: 0cd8 94be 895b 043f a0b3 05bf cec6 953e
00000170: 8ebe a93d 4910 273e a33c 943e cec3 13bf

bias f4 [8]
-0.027811155 0.093262345 0.02016479 0.07241018 -0.27002135 -0.015607271 -0.10468555 -0.038101915
00000000: 38d4 e3bc 5400 bf3d a130 a53c ca4b 943d
00000010: 3d40 8abe a4b5 7fbc 6165 d6bd c110 1cbd

weight f4 [8, 12]
0.50697654 -0.9567751 -0.6337195 0.070810184 -0.69111884 0.0067651425 0.482944 -0.55045617
-0.13922827 1.50972 -0.25391862 0.003827074 0.67582494 -0.8497764 0.055400472 -0.0951449
0.31440032 -1.2007154 0.06296282 0.43685594 -0.7410147 -1.9979478 -1.536167 0.37555537
0.39524704 0.60389185 0.016415557 -0.018921487 0.5590813 -0.81063557 -0.36375248 -0.43000814
0.34587607 0.2131908 -0.60041416 -0.07121083 -0.2096024 -0.71004397 1.210453 -0.31921822
-0.3791045 -0.7774256 0.40025702 -0.8156708 -0.8130855 -0.2525222 0.47094345 0.44304445
-1.0425981 -0.031418644 -0.69952834 -0.5572298 0.21585117 -0.23259921 1.0347086 -0.07965685
0.4226776 -0.0037654892 0.4946801 0.0652817 -1.0585357 1.2710611 -0.16434397 0.20611523
-0.6996299 -1.3060191 -0.7877405 -0.32594243 -0.23322588 1.2406148 2.3498368 0.57699126
0.81575865 0.14333943 0.58116496 0.6366874 -0.30622777 0.7015578 -0.20667261 0.7052564
0.96831095 1.1128037 0.056783196 -0.065343335 1.838428 0.17326218 1.0311 0.008059222
0.51063204 0.11666938 0.35886067 -0.21347709 0.73711306 -1.5167674 -0.9953212 0.4868986
00000000: 37c9 013f 37ef 74bf 713b 22bf ee04 913d
00000010: 2aed 30bf 21ae dd3b 7044 f73e b2ea 0cbf
00000020: db91 0ebe 813e c13f 9f01 82be a6cf 7a3b
00000030: dd02 2d3f f28a 59bf 9beb 623d 54db c2bd
00000040: 14f9 a03e 0bb1 99bf a7f2 803d 95ab df3e
00000050: 24b3 3dbf c1bc ffbf 1fa1 c4bf cb48 c03e
00000060: d25d ca3e a898 1a3f eb79 863c 3c01 9bbc
00000070: f41f 0f3f d085 4fbf c43d babe 072a dcbe
00000080: ab16 b13e b04e 5a3e beb4 19bf fcd6 91bd
00000090: 03a2 56be 71c5 35bf 20f0 9a3f 9270 a3be
000000a0: fc19 c2be 5d05 47bf 7dee cc3e cdcf 50bf
000000b0: 5f26 50bf 974a 81be 801f f13e b9d6 e23e
000000c0: db73 85bf d6b0 00bd 4a14 33bf 9da6 0ebf
000000d0: 1708 5d3e 7d2e 6ebe 5571 843f 2123 a3bd
000000e0: 3369 d83e 6dc6 76bb b646 fd3e 69b2 853d
000000f0: 197e 87bf 21b2 a23f c949 28be df0f 533e
00000100: f21a 33bf a22b a7bf 5da9 49bf ede1 a6be
00000110: c4d2 6ebe 77cc 9e3f ba63 1640 b3b5 133f
00000120: 8fd5 503f 92c7 123e 3ac7 143f f2fd 223f
00000130: e3c9 9cbe 4b99 333f fca1 53be af8b 343f
00000140: 3ae3 773f 5a70 8e3f 7f95 683d bad2 85bd
00000150: 9c51 eb3f a46b 313e 16fb 833f d40a 043c
00000160: c8b8 023f 5bf0 ee3d 96bc b73e bd99 5abe
00000170: 71b3 3c3f 6f25 c2bf 5fcd 7ebf c64a f93e

bias f4 [8]
0.033285994 0.21263471 0.2674799 0.41617247 0.035530034 0.28441492 0.5022722 0.003127218
00000000: e556 083d eabc 593e 20f3 883e 8f14 d53e
00000010: f187 113d d59e 913e e994 003f 03f2 4c3b

weight f4 [8, 12]
0.30130762 -1.0710444 -0.894352 -0.18794525 0.16296043 0.63237125 0.07858453 -0.52468777
-0.5122634 1.2393911 -1.043971 0.41689384 0.5693316 -1.3893428 0.6070418 0.6436047
1.307311 -0.4818793 0.14095415 1.1578417 -0.63576514 -1.7948015 -0.81803143 0.1892976
0.4811331 0.7191055 -0.7825955 0.4525457 0.54399896 -1.0427411 -0.79781276 -0.18702473
0.5234442 0.7679556 -0.31260207 -0.30837744 -0.74891853 -0.34757578 0.90124947 -0.46485567
0.03924387 -0.6918554 0.4112067 -0.15446411 -0.64035714 -0.20367664 0.016420364 0.6357055
-0.9170873 -0.2271395 0.012850215 -0.40853378 0.14325239 0.1666062 0.09487309 -1.0042902
0.6725316 0.15076701 -0.14763772 0.83244467 -0.8429499 0.67004555 -0.74267274 -0.63185596
-1.293561 -0.81713784 -1.2358576 -0.60972655 0.45629075 0.748267 1.7738926 0.5955866
1.5225329 0.7793182 0.7208779 0.6783315 0.21726406 0.06875983 -1.0416334 0.28829893
0.24537107 1.744753 0.4514839 -0.056002203 1.7851827 -0.21874222 0.9045083 0.35736158
0.07928238 -0.0597032 0.01706335 0.08332794 0.077454455 -0.5430708 -1.0971143 -0.20458956
00000000: fe44 9a3e fc17 89bf 41f4 64bf b874 40be
00000010: 19df 263e 15e3 213f edf0 a03d f051 06bf
00000020: b223 03bf 5ea4 9e3f d7a0 85bf 1c73 d53e
00000030: b7bf 113f fcd5 b1bf 1767 1b3f 47c3 243f
00000040: f855 a73f e2b8 f6be 4956 103e 2834 943f
00000050: 81c1 22bf 0ebc e5bf 826a 51bf 3bd7 413e
00000060: 1457 f63e 4c17 383f 2e58 48bf 12b4 e73e
00000070: 8443 0b3f 8a78 85bf 753d 4cbf 6983 3fbe
00000080: 7000 063f bd98 443f 610d a0be a6e3 9dbe
00000090: 20b9 3fbf 74f5 b1be 49b8 663f 9001 eebe
000000a0: 2ebe 203d 6f1d 31bf af89 d23e d72b 1ebe
000000b0: 72ee 23bf 9c90 50be 0084 863c 98bd 223f
000000c0: 3cc6 6abf 4297 68be b589 523c 572b d1be
000000d0: c1b0 123e d19a 2a3e d34c c23d 958c 80bf
000000e0: 082b 2c3f ab62 1a3e 582e 17be 181b 553f
000000f0: 91cb 57bf 1b88 2b3f cd1f 3ebf 50c1 21bf
00000100: 6893 a5bf f22f 51bf 9530 9ebf 0a17 1cbf
00000110: f19e e93e 6d8e 3f3f ea0e e33f 5d78 183f
00000120: 5ce2 c23f 6681 473f 748b 383f 22a7 2d3f
00000130: 787a 5e3e f4d1 8c3d 3e54 85bf eb9b 933e
00000140: 8e42 7b3e 1154 df3f e628 e73e 9162 65bd
00000150: de80 e43f f6fd 5fbe db8d 673f 19f8 b63e
00000160: cd5e a23d 588b 74bd 70c8 8b3c d7a7 aa3d
00000170: 71a0 9e3d b006 0bbf 3e6e 8cbf ed7f 51be

bias f4 [8]
0.075610586 -0.28150412 0.22925535 0.26940987 0.10833984 -0.057243906 0.42551816 -0.16406661
00000000: b9d9 9a3d 4f21 90be eac1 6a3e 17f0 893e
00000010: 47e1 dd3d 9678 6abd 84dd d93e 1401 28be

weight f4 [8, 8]
-0.00036200922 0.0012186132 0.005423374 -0.004842906 -0.003968898 0.003817259 0.005709616 0.0029395898
0.003504199 0.00029608043 -0.018096892 0.0096673425 0.005090476 0.0069257375 -0.031388022 0.0074713808
-0.5118896 -0.09655962 -0.68134916 -0.87778175 0.06285527 -0.01440017 -0.18484783 -0.5155157
0.21805917 -0.03345605 0.45643765 0.5446228 0.09929259 0.10394422 -0.26943251 0.04489719
0.11506664 -0.32432112 0.06773011 0.119299345 0.0033563979 0.108455025 0.21589708 -0.39655197
0.030877024 0.87867886 -0.496262 0.36721393 0.3505869 -0.00063403294 -1.280951 0.39876246
0.00761278 0.003406691 -0.022150857 0.015069172 0.000119032076 0.0056799785 -0.020963607 0.010227605
0.06921029 0.029303042 -0.4571793 0.48897544 0.27606112 -0.23261602 0.038541187 -0.92951256
00000000: 0ecc bdb9 e0b9 9f3a 8fb6 b13b 3db1 9ebb
00000010: 880d 82bb fb2a 7a3b bb17 bb3b 22a6 403b
00000020: b4a6 653b 3e3b 9b39 ef3f 94bc c663 1e3c
00000030: 02ce a63b 4cf1 e23b ba90 00bd 7cd2 f43b
00000040: 320b 03bf 0dc1 c5bd e66c 2ebf 4eb6 60bf
00000050: 44ba 803d b1ee 6bbc c048 3dbe d6f8 03bf
00000060: e74a 5f3e 3609 09bd 32b2 e93e 666c 0b3f
00000070: ea59 cb3d b5e0 d43d 0ff3 89be 1ee6 373d
00000080: 0fa8 eb3d 6b0d a6be 15b6 8a3d 3753 f43d
00000090: 03f7 5b3b ab1d de3d 2014 5d3e dc08 cbbe
000000a0: d0f1 fc3c 19f1 603f 0e16 febe 7703 bc3e
000000b0: 2080 b33e 3b35 26ba 34f6 a3bf 982a cc3e
000000c0: a174 f93b ca42 5f3b b775 b5bc b0e4 763c
000000d0: dca0 f938 1d1f ba3b dfbb abbc af91 273c
000000e0: 20be 8d3d ef0c f03c 6813 eabe fd5a fa3e
000000f0: e257 8d3e e532 6ebe 5ddd 1d3d 89f4 6dbf

bias f4 [8]
-0.00025585288 -0.0017842627 0.18506108 0.011260059 0.040248357 -0.05406931 -0.0012252292 -0.17869605
00000000: fe23 86b9 ecdd e9ba a780 3d3e 1c7c 383c
00000010: 76db 243d c877 5dbd df97 a0ba 19fc 36be

hx f4 [512, 19]
-0.038774677 -0.11483388 0.3313989 -0.30739617 0.70656896 0.6463915 -0.19859873 0.087219924
0.112300016 -0.12977025 -0.24771166 0.20166254 0.009907708 0.2970894 0.38459265 0.022487022
0.06928222 -0.015024375 0.104259945 -0.010786954 -0.13914813 0.23886557 -0.3798121 0.65089
0.5779569 -0.038867 0.075546674 0.13885322 -0.1357628 -0.13073899 0.15988877 0.004413374
0.19927809 0.35076207 0.00522878 0.033204235 -0.0032786205 0.027533233 0.041373137 -0.10541112
0.19932613 -0.36901742 0.5812259 0.46096894 0.10075684 0.05245845 0.12278163 -0.13049036
-0.02493564 0.0839313 0.0038776696 0.08448226 0.2859539 -0.013893597 -0.00010387227 0.008514352
-0.022230562 0.096016705 -0.03326592 0.14394212 -0.2721466 0.51447403 0.27936408 0.19714631
0.022640936 0.051754043 -0.10855808 0.047483493 -0.021441784 -0.0036964267 -0.02419357 0.18691885
-0.027003422 -0.02596756 0.016998433 -0.029290807 0.14377777 -0.021654364 0.040106885 -0.13843113
0.4094085 0.04417348 0.24577096 0.00013207644 -0.0026154965 -0.052951977 0.08651423 -0.101821005
-0.014138859 -0.11094266 0.05748414 0.0014011413 -0.030889394 0.019079454 0.0009984858 0.09911576
-0.15029998 -0.08987966 -0.008691303 0.22639261 -0.0659351 0.27440023 0.0054499507 0.0016366988
0.070344076 0.11866464 -0.07884597 0.0010853373 -0.16581036 -0.09328227 0.07340059 -0.009604558
0.018026028 0.027729282 -0.0021353066 -0.26092705 -0.16315849 0.0886252 0.09112565 0.033428177
0.3111565 0.012212127 0.0252124 0.1638815 0.15983833 -0.051067546 0.03726143 -0.21172354
-0.2045132 0.12448892 0.0037924144 0.01820164 0.020298205 -0.08024554 -0.314131 -0.18171535
0.124369934 0.014006715 0.10767111 0.3677774 0.007871669 0.051048577 0.21582721 0.21327403
-0.053954866 0.06596702 -0.25988674 -0.2685856 0.14990665 -0.002175183 0.015414212 -0.010157838
-0.1276857 -0.3803432 -0.19285196 0.0897871 -0.031708658 0.112842545 0.44323796 0.010981649
0.07713221 0.24501623 0.2795136 -0.06613234 0.07992531 -0.29820114 -0.29015368 0.15887141
-0.0183456 0.0024130717 -0.06807415 -0.15958908 -0.44993505 -0.19482432 -0.0040812083 -0.052349232
0.06269933 0.5285789 0.03242211 0.09102308 0.26025778 0.3494334 -0.06840375 0.07972989
-0.32710013 -0.28232455 0.15469201 -0.046976946 -0.009882163 -0.14014906 -0.15126501 -0.49707875
-0.19510466 -0.110184684 -0.059639037 0.00879626 0.59514004 0.060955115 0.10032931 0.25453693
0.40422422 -0.06514155 0.07556788 -0.3472712 -0.25568226 0.14395997 -0.08208432 -0.01811473
-0.20213263 -0.13336258 -0.5043384 -0.176864 -0.18260378 -0.024854206 0.006174259 0.62506527
0.067879625 0.090103894 0.22808102 0.43129808 -0.061391 0.065133445 -0.35282266 -0.21827058
0.1136553 -0.10913041 -0.024156678 -0.24126112 -0.10633869 -0.48018387 -0.15741518 -0.21630022
0.043321304 0.026746348 0.6101121 0.05702723 0.067503996 0.18545678 0.42112643 -0.060691897
0.062400885 -0.3383451 -0.17788967 0.082465544 -0.11061626 -0.026591074 -0.24211445 -0.08188462
-0.41295245 -0.1323704 -0.20894234 0.14721787 0.03452217 0.5512805 0.03381324 0.021793269
00000000: 32d2 1ebd 062e ebbd 1ead a93e 0863 9dbe
00000010: b4e1 343f ea79 253f 775d 4bbe 5ca0 b23d
00000020: 8dfd e53d 7ee2 04be 20a8 7dbe a080 4e3e
00000030: f053 223c 1a1c 983e 54e9 c43e b436 b83c
00000040: d6e3 8d3d cc28 76bc 3d86 d53d c4bb 30bc
00000050: d97c 0ebe 2d99 743e bb76 c2be baa0 263f
00000060: fcf4 133f 0133 1fbd 37b8 9a3d 8a2f 0e3e
00000070: 6705 0bbe 71e0 05be e2b9 233e 109e 903b
00000080: 8e0f 4c3e 1697 b33e 3056 ab3b 2a01 083d
00000090: 20de 56bb 608d e13c e176 293d c9e1 d7bd
000000a0: 261c 4c3e daef bcbe 38cb 143f 1f04 ec3e
000000b0: 9a59 ce3d acde 563d ef74 fb3d 449f 05be
000000c0: d445 ccbc 2ce4 ab3d 8020 7e3b 0905 ad3d
000000d0: 8d68 923e f8a1 63bc 00d6 d9b8 c87f 0b3c
000000e0: de1c b6bc 68a4 c43d d841 08bd 9065 133e
000000f0: cd56 8bbe 92b4 033f cf08 8f3e b9e0 493e
00000100: 7c79 b93c 0cfc 533d b353 debd 0d7e 423d
00000110: aea6 afbc c03f 72bb 9831 c6bc a867 3f3e
00000120: 4836 ddbc ecb9 d4bc 4c40 8b3c 46f3 efbc
00000130: 7b3a 133e 7e64 b1bc 1e47 243d e4c0 0dbe
00000140: fe9d d13e 40ef 343d 62ab 7b3e 007e 0a39
00000150: c068 2bbb 2ce4 58bd 5f2e b13d 8887 d0bd
00000160: aca6 67bc e835 e3bd 7d74 6b3d 80a6 b73a
00000170: c10b fdbc 844c 9c3c a0df 823a 34fd ca3d
00000180: 3de8 19be d412 b8bd f865 0ebc 77d3 673e
00000190: fb08 87bd 307e 8c3e 8095 b23b 8086 d63a
000001a0: 8e10 903d 7206 f33d ff79 a1bd e041 8e3a
000001b0: 31ca 29be c60a bfbd 0c53 963d 705c 1dbc
000001c0: 52ab 933c 8528 e33c 80f0 0bbb 3b98 85be
000001d0: 0513 27be 2181 b53d 16a0 ba3d fceb 083d
000001e0: e84f 9f3e 6015 483c 3c8a ce3c 8dd0 273e
000001f0: a9ac 233e 342c 51bd 719f 183d 0ece 58be
00000200: e96b 51be 0cf4 fe3d 288a 783b 9b1b 953c
00000210: 6c48 a63c c657 a4bd c7d5 a0be 9713 3abe
00000220: aab5 fe3d 6c7c 653c ac82 dc3d 524d bc3e
00000230: 2cf8 003c 5018 513d cf01 5d3e 8264 5a3e
00000240: c7ff 5cbd b819 873d e00f 85be 0d84 89be
00000250: 2181 193e 848d 0ebb e48b 7c3c 106d 26bc
00000260: 0ac0 02be 58bc c2be fc7a 45be 4de2 b73d
00000270: f0e0 01bd fe19 e73d 16f0 e23e 60ec 333c
00000280: 7ef7 9d3d 89e5 7a3e 681c 8f3e 6470 87bd
00000290: e2af a33d d2ad 98be 068f 94be 30af 223e
000002a0: 8349 96bc a024 1e3b 766a 8bbd 526b 23be
000002b0: e35d e6be 0780 47be a8bb 85bb 266c 56bd
000002c0: 8268 803d f250 073f 0ccd 043d 4f6a ba3d
000002d0: 8240 853e efe8 b23e 4417 8cbd 6d49 a33d
000002e0: ab79 a7be d88c 90be 9567 1e3e e66a 40bd
000002f0: cce8 21bc 3c83 0fbe 37e5 1abe 1b81 febe
00000300: 84c9 47be 82a8 e1bd 1048 74bd 301e 103c
00000310: 195b 183f 12ac 793d 7479 cd3d aa52 823e
00000320: 7af6 ce3e ef68 85bd 55c3 9a3d 88cd b1be
00000330: c9e8 82be 3e6a 133e d31b a8bd 5865 94bc
00000340: dbfb 4ebe 3390 08be 521c 01bf d61b 35be
00000350: 7cfc 3abe 0c9b cbbc 7051 ca3b 4704 203f
00000360: 7904 8b3d 6488 b83d 128e 693e 1ad3 dc3e
00000370: 2175 7bbd af64 853d 2ca5 b4be 5382 5fbe
00000380: 1cc4 e83d c47f dfbd 3ae4 c5bc 280d 77be
00000390: 19c8 d9bd a9da f5be 7231 21be ce7d 5dbe
000003a0: ae71 313d 281b db3c 4e30 1c3f 6295 693d
000003b0: 893f 8a3d 62e8 3d3e e29d d73e 1198 78bd
000003c0: 1298 7f3d 923b adbe b628 36be b2e3 a83d
000003d0: c78a e2bd 86d5 d9bc daec 77be 20b3 a7bd
000003e0: 816e d3be 1b8c 07be fbf4 55be 48c0 163e
000003f0: 1e67 0d3d b820 0d3f c07f 0a3d cc87 b23c

weight f4 [2, 1, 1, 1]
-1.240754 -1.2713456
00000000: 07d1 9ebf 74bb a2bf

bias f4 [2]
0.40539917 0.025259538
00000000: 7b90 cf3e 17ed ce3c

weight f4 [2, 2, 3, 3]
0.2825959 0.30342248 0.49672723 0.5346845 -0.34583166 -0.03250317 0.30875042 0.39506814
0.11280373 0.025969293 0.19457892 0.5597964 0.6183744 -0.4332109 -0.17640767 0.16144365
0.37808093 0.263353 -0.08728583 0.4669633 -0.5034694 0.11885012 -0.2222492 -0.47706872
-0.006000832 0.5019726 0.95199233 -0.18470883 0.19364864 -1.0474727 0.50593835 -0.21844345
-0.58322215 0.34620962 0.2281616 -0.27063167
00000000: 69b0 903e 315a 9b3e 0853 fe3e 15e1 083f
00000010: d910 b1be 0b22 05bd 8914 9e3e 5f46 ca3e
00000020: a405 e73d 8ebd d43c b23f 473e d14e 0f3f
00000030: c94d 1e3f d2cd ddbe 36a4 34be 7c51 253e
00000040: d393 c13e 34d6 863e eac2 b2bd d015 ef3e
00000050: 5fe3 00bf b167 f33d 4b95 63be 5a42 f4be
00000060: a1a2 c4bb 4781 003f c5b5 733f 5024 3dbe
00000070: d44b 463e 9613 86bf 2d85 013f a4af 5fbe
00000080: 0c4e 15bf 6342 b13e 32a3 693e 3c90 8abe

bias f4 [2]
0.041055586 0.042975597
00000000: e729 283d 2e07 303d

weight f4 [2, 2, 3, 3]
0.17275295 0.88863313 -0.65270376 0.15651134 -0.5218884 0.17331702 0.030931575 -0.5625706
-0.016958067 -0.03470071 1.1031487 -0.8646362 0.12307599 -0.7756677 0.31148082 0.44458845
-0.5810158 0.3297716 0.061947357 -0.7284492 1.1139972 -0.06816758 -0.23924598 -0.11278373
-0.16605043 -0.4791911 -0.17019658 -0.0024228594 -0.64282346 1.2730796 0.083916865 0.07494173
-0.26671147 0.25852823 -0.41831148 0.18260042
00000000: 26e6 303e 767d 633f 9817 27bf 8244 203e
00000010: 7a9a 05bf 047a 313e 3764 fd3c a004 10bf
00000020: a5eb 8abc 5522 0ebd fa33 8d3f cc58 5dbf
00000030: 440f fc3d 2992 46bf 6a7a 9f3e 19a1 e33e
00000040: 74bd 14bf d3d7 a83e 83bc 7d3d a67b 3abf
00000050: 7697 8e3f 729b 8bbd e6fc 74be 28fb e6bd
00000060: 2009 2abe 8958 f5be 0348 2ebe d6c8 1ebb
00000070: 1490 24bf 46f4 a23f 9bdc ab3d 0d7b 993d
00000080: 688e 88be d05d 843e ec2c d6be 9bfb 3a3e

bias f4 [2]
-0.049959548 0.09319295
00000000: 62a2 4cbd f2db be3d

weight f4 [2, 2, 3, 3]
-0.1680873 -0.41502336 -0.5423216 -0.15803456 0.22442919 -0.16879025 0.09840722 -0.5187915
-0.101773664 0.026057567 -0.093256235 -0.58070475 -0.19467169 0.32353935 -0.069685176 -0.5666498
0.76427275 0.5023879 -0.23767038 0.10376767 -0.024960762 0.12138459 -0.49352372 0.22285892
0.0003954618 0.69570154 -0.22482947 -0.57060736 0.6288722 -0.4806047 0.080632746 0.02393035
-0.23684175 0.4375433 -0.52365476 0.0017431166
00000000: 141f 2cbe f17d d4be 97d5 0abf d0d3 21be
00000010: c4d0 653e 5ad7 2cbe b989 c93d 85cf 04bf
00000020: b66e d0bd ae76 d53c 20fd bebd 11a9 14bf
00000030: 0458 47be f3a6 a53e 1ab7 8ebd f60f 11bf
00000040: 61a7 433f 7e9c 003f dd5f 73be 2584 d43d
00000050: 837a ccbc 7c98 f83d 24af fcbe 2135 643e
00000060: fc55 cf39 7f19 323f b239 66be 5313 12bf
00000070: c5fd 203f d211 f6be c822 a53d 9509 c43c
00000080: a586 72be ad05 e03e 3d0e 06bf 4a79 e43a

bias f4 [2]
0.31047723 -0.13923648
00000000: dff6 9e3e 0294 0ebe

weight f4 [2, 2, 3, 3]
-0.36351478 -0.30660555 1.5861002 0.186878 0.14027002 -1.5539386 0.38272524 -0.090714306
0.20893072 0.3155451 -0.51919574 -0.5207512 0.12679276 0.26900622 1.2417319 -0.7032395
-0.32291663 0.39019588 -0.522872 0.24702083 -0.09034677 0.46305674 -0.10169064 0.16311876
-0.4352723 0.5099478 0.05286135 0.31786838 -0.6490496 0.6513503 -0.5694057 0.29403552
0.0130511215 0.6510439 -0.9902145 0.57694566
00000000: 9c1e babe 67fb 9cbe 5505 cb3f f25c 3f3e
00000010: f2a2 0f3e 76e7 c6bf 90f4 c33e 6cc8 b9bd
00000020: eff1 553e 218f a13e 03ea 04bf f34f 05bf
00000030: f6d5 013e 2fbb 893e 12f1 9e3f 8107 34bf
00000040: 5455 a5be c1c7 c73e f0da 05bf 07f3 7c3e
00000050: ba07 b9bd c615 ed3e 2f43 d0bd 9b08 273e
00000060: 03dc debe f08b 023f 2585 583d a5bf a23e
00000070: 1d28 26bf e5be 263f 92c4 11bf d38b 963e
00000080: 5fd4 553c d0aa 263f b37e 7dbf b6b2 133f

bias f4 [2]
-0.1739571 0.036333025
00000000: cf21 32be f0d1 143d

weight f4 [2, 2, 3, 3]
0.007235646 0.25985214 0.47048408 -0.13477378 0.19329229 0.28358212 -0.10754219 -0.15583782
-0.13586761 -0.12445537 -0.24543004 0.051185515 -0.029425556 0.27219772 0.06341794 -0.3469116
0.07760749 0.2445267 0.13307476 0.38539937 -0.6282304 -0.1361727 -0.26787606 -0.45751372
0.11855211 0.22603966 -0.3312147 0.38271138 -0.76707596 0.30006784 -0.2305488 0.50268483
0.01851518 0.16599178 0.2439348 -0.18182585
00000000: ff18 ed3b 570b 853e 4ae3 f03e 2302 0abe
00000010: 6aee 453e ad31 913e 143f dcbd f393 1fbe
00000020: e120 0bbe 75e2 febd 0352 7bbe e7a7 513d
00000030: dd0d f1bc 805d 8b3e 44e1 813d 669e b1be
00000040: adf0 9e3d 3565 7a3e c044 083e 1153 c53e
00000050: b5d3 20bf db70 0bbe 0d27 89be 3d3f eabe
00000060: 73cb f23d f176 673e f994 a9be bff2 c33e
00000070: 175f 44bf 7ea2 993e fc14 6cbe f4af 003f
00000080: 26ad 973c c0f9 293e 0bca 793e 8e30 3abe

bias f4 [2]
-0.19400206 -0.16984172
00000000: 7aa8 46be fdea 2dbe

weight f4 [2, 2, 3, 3]
0.050068256 0.52954996 0.276566 -0.3603211 -0.8166725 -0.27730134 -0.6649175 1.149473
0.44387642 -0.2911643 0.7118642 0.011653151 -0.8309765 1.0892189 -0.3004475 -0.38327557
0.0960722 0.27896857 -0.14815632 0.808985 -0.028212378 0.5326085 -0.4386152 -0.28262123
0.12982605 -0.029498756 -0.11393987 -0.10999799 -0.09788116 0.51658344 0.39303994 -0.08729462
0.014673751 0.09888962 0.045348514 0.24334097
00000000: 5f14 4d3d 9690 073f 0f9a 8d3e 027c b8be
00000010: 7311 51bf 71fa 8dbe 0938 2abf ee21 933f
00000020: c543 e33e 7d13 95be bb3c 363f dcec 3e3c
00000030: e0ba 54bf 866b 8b3f 41d4 99be b23c c4be
00000040: 80c1 c43d f8d4 8e3e 4ab6 17be a419 4f3f
00000050: a51d e7bc 0859 083f 2c92 e0be bbb3 90be
00000060: 1ff1 043e 60a7 f1bc 4e59 e9bd a046 e1bd
00000070: eb75 c8bd d03e 043f 883c c93e 86c7 b2bd
00000080: 2c6a 703c a486 ca3d 5dbf 393d 602e 793e

bias f4 [2]
-0.22447495 0.07402753
00000000: c3dc 65be bf9b 973d

weight f4 [4, 2]
0.001242007 -0.00078336603 -0.032127652 -0.45476568 -0.0015394039 -0.0009211825 0.00040742077 0.00033186408
00000000: d7ca a23a ce5a 4dba 4998 03bd 0cd7 e8be
00000010: d3c5 c9ba 837b 71ba 179b d539 0bfe ad39

bias f4 [4]
0.00022759801 0.91992575 0.0038078418 0.0028155583
00000000: 60a7 6e39 4180 6b3f fc8c 793b 3b85 383b

weight f4 [2, 4]
8.953621e-05 0.2902199 -0.00012319435 -0.0034830796 -4.902022e-05 0.048111532 0.00056756026 0.0014206084
00000000: 63c5 bb38 b497 943e bb2d 01b9 6144 64bb
00000010: 0f9b 4db8 9910 453d 53c8 143a b533 ba3a

bias f4 [2]
-0.99139893 -0.06655724
00000000: 52cc 7dbf 2a4f 88bd

weight f4 [4, 2]
0.38271046 -0.92033136 0.017675066 -0.031527266 -0.20910451 0.11357836 0.16584949 -0.34128803
00000000: a0f2 c33e d69a 6bbf 4dcb 903c bc22 01bd
00000010: 7e1f 56be c59b e83d 73d4 293e 4ebd aebe

bias f4 [4]
-0.6809152 -0.009075239 0.3182486 -0.020491112
00000000: 7550 2ebf 50b0 14bc 7bf1 a23e fadc a7bc

weight f4 [2, 4]
0.033926573 0.0019866382 0.00271871 -0.0028956716 3.6684928 -0.37641412 2.248165 -1.2302773
00000000: 97f6 0a3d 4232 023b 632c 323b 4fc5 3dbb
00000010: 96c8 6a40 5ab9 c0be efe1 0f40 ba79 9dbf

bias f4 [2]
-0.3718522 -3.5530431
00000000: 6963 bebe 0f65 63c0

weight f4 [4, 2]
-0.01260454 0.011887085 -0.0036675916 0.0050767357 -0.017697837 0.0155985 -0.4024252 0.2750566
00000000: 4683 4ebc 0cc2 423c fa5b 70bb bf5a a63b
00000010: 0efb 90bc da90 7f3c ad0a cebe 38d4 8c3e

bias f4 [4]
0.012192073 0.0016624107 0.017815992 0.5244222
00000000: 43c1 473c 3fe5 d93a d8f2 913c 8940 063f

weight f4 [2, 4]
-0.0027033621 -0.0028173672 -0.0021088708 0.0055820127 -0.00079683284 -0.0007573899 -0.0008899935 -0.010767754
00000000: e42a 31bb 94a3 38bb fb34 0abb 51e9 b63b
00000010: 8ce2 50ba 938b 46ba 744e 69ba 3c6b 30bc

bias f4 [2]
-0.20866528 -1.2279792
00000000: 5aac 55be 6c2e 9dbf

weight f4 [4, 2]
0.0017926192 -0.00019136391 -0.64579815 -0.50211203 -0.6534227 0.44900072 0.0015761739 -0.0002733977
00000000: 52f6 ea3a dca8 48b9 0753 25bf 6a8a 00bf
00000010: b646 27bf 6ce3 e53e 9f97 ce3a d156 8fb9

bias f4 [4]
-0.0006014365 -0.088019654 -0.5213428 -0.00027053079
00000000: b8a9 1dba a643 b4bd b976 05bf 07d6 8db9

weight f4 [2, 4]
-9.724949e-05 -0.3312636 0.0916674 -0.000100019875 -0.000730959 0.7396651 0.5822541 -0.0013995294
00000000: 6cf2 cbb8 629b a9be 1ebc bb3d c3c1 d1b8
00000010: d49d 3fba b15a 3d3f 9b0e 153f 6a70 b7ba

bias f4 [2]
-0.18666013 -0.4543741
00000000: d523 3fbe b9a3 e8be

weight f4 [4, 2]
0.14756282 -0.1827168 0.5854919 -0.73118144 0.22233784 0.34509054 0.0111570405 -0.009510442
00000000: b51a 173e 1d1a 3bbe cce2 153f b52e 3bbf
00000010: 88ac 633e b5af b03e 05cc 363c afd1 1bbc

bias f4 [4]
0.9560806 0.4506849 -1.8166533 0.0046509835
00000000: b3c1 743f 2cc0 e63e 1888 e8bf 4767 983b

weight f4 [2, 4]
-0.4595956 -0.19482602 0.44426078 0.007029893 -0.50861025 -0.22173907 1.3662997 0.0008378254
00000000: 1d50 ebbe 7980 47be 2676 e33e 045b e63b
00000010: 4834 02bf 910f 63be e9e2 ae3f 83a1 5b3a

bias f4 [2]
-0.38100177 -1.0751524
00000000: aa12 c3be 989e 89bf

weight f4 [4, 2]
0.288738 -0.19395077 0.008214905 -0.02967817 -0.068063445 -0.008962988 -0.02179855 0.19429243
00000000: 78d5 933e 089b 46be cf97 063c a21f f3bc
00000010: d964 8bbd 7fd9 12bc df92 b2bc 98f4 463e

bias f4 [4]
-2.8520577 0.21902898 -0.14447555 -1.640797
00000000: 1d88 36c0 2249 603e 66f1 13be a305 d2bf

weight f4 [2, 4]
0.9873584 0.0025346277 -0.0027991873 -0.0037520607 -1.7883873 1.7414482 -6.1075764 -1.15187
00000000: 85c3 7c3f ff1b 263b 9272 37bb 22e5 75bb
00000010: e0e9 e4bf c6e7 de3f 4471 c3c0 7a70 93bf

bias f4 [2]
-1.3668711 1.6581457
00000000: a2f5 aebf 1e3e d43f

weight f4 [4, 2]
-3.4376438 -0.11640747 -0.0036208483 -0.008792852 1.2958739 -0.3143429 3.3077838 0.051755663
00000000: 5b02 5cc0 0a67 eebd c14b 6dbb e50f 10bc
00000010: 32df a53f 8df1 a0be bbb2 5340 bffd 533d

bias f4 [4]
0.975444 0.040276937 0.044270866 -0.93105465
00000000: b3b6 793f 6ef9 243d 5e55 353d 9959 6ebf

weight f4 [2, 4]
0.7849206 -0.010410991 -0.2571206 -1.172329 0.55766433 -0.008455521 -0.039197486 -0.5920126
00000000: 8ef0 483f dc92 2abc 50a5 83be e00e 96bf
00000010: 17c3 0e3f 0789 0abc 8b8d 20bd 238e 17bf

bias f4 [2]
0.8073699 -0.27453327
00000000: cbaf 4e3f a08f 8cbe

weight f4 [4, 2]
0.037327643 -0.0027408295 -0.0002623963 -0.0007962747 0.30636358 0.90887463 0.35734096 -0.7219107
00000000: dfe4 183d 7d9f 33bb 3c92 89b9 17bd 50ba
00000010: b0db 9c3e 02ac 683f 65f5 b63e 24cf 38bf

bias f4 [4]
0.459143 0.00054598827 0.84834373 -0.812188
00000000: cb14 eb3e a720 0f3a 0e2d 593f 8eeb 4fbf

weight f4 [2, 4]
-0.2315804 0.006353795 -0.9826386 1.1275933 -0.2533346 -0.00089420675 -0.1484224 0.20859279
00000000: 6a23 6dbe 7f33 d03b 348e 7bbf fa54 903f
00000010: 13b5 81be 3369 6aba 0bfc 17be 5999 553e

bias f4 [2]
-0.9624843 -0.22084866
00000000: 5f65 76bf 2726 62be

weight f4 [2, 2, 3, 3]
-0.7188637 -0.22543903 0.32560453 -0.13135245 -0.44506064 0.40465808 -0.2869196 -0.31021607
0.14352584 0.4173282 -0.25235474 -0.57630104 -0.21609615 -0.03330497 -0.66094273 -0.24176751
-0.29055208 -0.81741166 -0.6954252 -0.018796058 0.38846007 -0.2655528 -0.43855634 0.452606
-0.2539419 -0.35018152 -0.2707719 0.4339172 -0.24161096 -0.40548852 -0.3544539 -0.1277796
-0.62660974 -0.046681117 0.04609414 -0.7178334
00000000: 7407 38bf 7dd9 66be a3b5 a63e 4281 06be
00000010: fdde e3be 582f cf3e 20e7 92be a4d4 9ebe
00000020: 70f8 123e 0bac d53e a434 81be 7788 13bf
00000030: 4f48 5dbe cb6a 08bd 8b33 29bf e791 77be
00000040: 3ec3 94be e441 51bf 6307 32bf 31fa 99bc
00000050: 3de4 c63e 89f6 87be 758a e0be f9bb e73e
00000060: ac04 82be fe4a b3be 9da2 8abe 652a de3e
00000070: dd68 77be 319c cfbe fb7a b5be a8d8 02be
00000080: 7f69 20bf b334 3fbd 35cd 3c3d eec3 37bf

bias f4 [2]
-0.047089037 -0.25951695
00000000: 6fe0 40bd 68df 84be

weight f4 [2, 2, 1, 3]
-0.03786054 -0.660223 0.6473571 -0.23065434 -2.030655 0.32922423 -0.02197844 -0.9133045
0.49225396 0.994691 1.5826616 -1.5382237
00000000: a713 1bbd 6004 29bf 32b9 253f a730 6cbe
00000010: 40f6 01c0 1490 a83e 210c b4bc 53ce 69bf
00000020: b608 fc3e 12a4 7e3f a894 ca3f 84e4 c4bf

bias f4 [2]
0.14545444 -0.2957806
00000000: 02f2 143e 8e70 97be

weight f4 [2, 2, 3, 5]
1.314661 0.5107316 -0.5385887 0.14499795 -0.68920726 0.81082165 -0.3982291 -0.08676067
0.15621327 0.27305302 0.41248542 0.560053 0.32150605 -0.41410896 -0.6838616 0.042059574
-0.35884103 0.5692333 0.4019378 -0.98995644 0.3181519 0.0581739 0.6538075 -1.0715551
0.9544109 -0.1587395 0.1661222 0.5170276 0.30728108 -0.4533342 -0.20339116 0.3443262
-0.023554537 -0.13794613 0.18595408 -0.20300712 -0.53618866 0.22103377 0.38327405 -0.2688268
-0.23183109 0.19424689 0.014240274 -0.13909955 -0.3753987 0.063351095 0.32817653 -0.5173107
-0.41514942 -0.06941417 -0.14253746 -0.40460008 -0.043391723 0.29684526 0.18055652 0.38519973
0.22831982 -0.01417939 0.26072186 -0.048677467
00000000: d046 a83f 4ebf 023f f3e0 09bf 587a 143e
00000010: e36f 30bf 0292 4f3f afe4 cbbe 94af b1bd
00000020: 5ff6 1f3e 9bcd 8b3e 4a31 d33e a25f 0f3f
00000030: 719c a43e 1706 d4be 8e11 2fbf a946 2c3d
00000040: 03ba b7be 46b9 113f cbca cd3e c96d 7dbf
00000050: cee4 a23e c147 6e3d ee5f 273f b828 89bf
00000060: 4654 743f 9c8c 22be f01b 2a3e ec5b 043f
00000070: f253 9d3e 6c1b e8be c645 50be 864b b03e
00000080: 72f5 c0bc c041 0dbe bf6a 3e3e 19e1 4fbe
00000090: a943 09bf ad56 623e 7f3c c43e aba3 89be
000000a0: 2165 6dbe a8e8 463e 0a50 693c 1d70 0ebe
000000b0: 4234 c0be 38be 813d c106 a83e 796e 04bf
000000c0: 778e d4be 0429 8ebd 57f5 11be be27 cfbe
000000d0: 85bb 31bd 1afc 973e cfe3 383e e638 c53e
000000e0: accc 693e ac50 68bc 567d 853e 0662 47bd

bias f4 [2]
0.34434527 -0.22663529
00000000: 064e b03e 1513 68be

weight f4 [2, 2, 3, 3]
-0.06542075 0.059389323 -0.24077094 -0.07628666 0.3796855 -0.690332 -0.24746928 0.6315071
-0.24851717 0.1749398 0.40564114 0.12689513 -0.24407093 0.2671969 0.28604782 -0.6291098
0.09937326 -0.92959154 0.009645997 0.0429479 0.14121518 0.17107569 0.14622654 -0.030010348
0.19574219 -0.17367205 0.33112988 -0.44327897 0.09735658 0.3161823 -1.1418396 0.31063572
-0.35105744 -0.2563707 -0.06463831 0.20937671
00000000: 50fb 85bd 3842 733d a88c 76be 2e3c 9cbd
00000010: 2366 c23e 99b9 30bf 9668 7dbe 73aa 213f
00000020: 497b 7ebe 6b23 333e 32b0 cf3e ccf0 013e
00000030: bbed 79be 08ce 883e dc74 923e 570d 21bf
00000040: 3584 cb3d b6f9 6dbf 3e0a 1e3c 23ea 2f3d
00000050: b69a 103e 772e 2f3e 69bc 153e 43d8 f5bc
00000060: a470 483e 16d7 31be db89 a93e 76f5 e2be
00000070: e362 c73d a5e2 a13e cd27 92bf a50b 9f3e
00000080: cdbd b3be 0543 83be 1761 84bd d966 563e

bias f4 [2]
0.01409475 0.060676683
00000000: abed 663c 1d88 783d

weight f4 [2, 2, 3, 3]
0.1423405 0.2829758 0.67298734 0.027922476 -0.3276631 0.08750221 0.32416695 0.19018894
0.33449584 0.015090474 0.07534679 -0.5461467 0.63925415 0.07781525 0.109090865 -0.08035672
0.072320916 0.6956823 0.037940066 0.12715645 0.44068116 -0.01650993 0.24386308 0.417033
-0.06120985 -0.2727063 -0.03438401 0.11124813 -0.51845014 -0.6088615 -0.020507973 0.1354728
0.2944973 -0.19914477 0.35115418 -0.44920948
00000000: b5c1 113e 34e2 903e e648 2c3f adbd e43c
00000010: 75c3 a7be 5c34 b33d 36f9 a53e e4c0 423e
00000020: 0a43 ab3e 093e 773c 6b4f 9a3d 45d0 0bbf
00000030: 29a6 233f 9a5d 9f3d 086b df3d 1092 a4bd
00000040: fd1c 943d 3c18 323f 0b67 1b3d 4d35 023e
00000050: f6a0 e13e d53f 87bc 3eb7 793e 5985 d53e
00000060: 2eb7 7abd 29a0 8bbe 3fd6 0cbd 0fd6 e33d
00000070: 26b9 04bf 59de 1bbf 5600 a8bc 62b9 0a3e
00000080: 5ac8 963e 9bec 4bbe 7bca b33e c9fe e5be

bias f4 [2]
0.3713169 -0.1403803
00000000: 401d be3e dabf 0fbe
